games_model.pkl (torch, 11927 bytes, 6 tensors)

weight f4 [50, 2]
-0.23278506 0.41689086 -0.2735834 0.850732 -0.29598862 0.43814272 -0.045864757 0.40123555
-0.21436255 0.6377652 0.4458019 -0.5254177 -0.22719166 -0.41865593 -0.32003915 -0.53532094
-0.40690294 0.91533476 0.53085274 -0.6881405 0.6888932 -0.88961285 -0.6264869 0.5791126
0.5314902 0.4136199 0.15227962 -0.65092444 -0.4612845 0.7978838 -0.13267459 -0.6897052
-0.7944125 0.8306592 0.0054608583 0.08117956 -0.7788331 0.13639578 0.2972806 0.15702122
-0.54647326 0.1595785 -0.6687417 -0.29810262 0.6349688 -0.26040465 0.742211 -0.64235085
0.5765861 -0.62731516 -0.5566131 -0.51596206 -0.34946015 0.12149924 -0.40076247 -0.06750411
0.04123628 -0.67253226 -0.5881803 -0.5140954 0.54314035 0.4076507 -0.9682909 0.17036994
0.33966097 0.9435523 0.65500665 -0.07410843 0.56607586 -0.36247173 0.06499314 -0.2495262
0.19514394 -0.30389115 0.4241773 0.59636575 0.45858988 0.47298276 0.47071454 0.3645013
0.011759877 0.10442978 0.5439279 -0.00011680811 -0.87543106 -0.4142446 -0.6181473 0.3599933
-0.4975366 0.2252557 0.17727393 1.6272068e-05 0.6280754 -0.69177467 0.7515042 -0.22808437
-0.0012844041 0.4556821 -0.48072207 0.248523
00000000: 355f 6ebe b872 d53e 2013 8cbe 93c9 593f
00000010: d28b 97be 3e54 e03e afdc 3bbd bf6e cd3e
00000020: db81 5bbe 9544 233f 2640 e43e c681 06bf
00000030: eea4 68be 125a d6be 2cdc a3be cb0a 09bf
00000040: 9555 d0be 6153 6a3f f7e5 073f fa29 30bf
00000050: 4e5b 303f abbd 63bf 7261 20bf b940 143f
00000060: be0f 083f fdc5 d33e 30ef 1b3e fca2 26bf
00000070: 7b2d ecbe 1d42 4c3f d9db 07be 8590 30bf
00000080: 9e5e 4bbf 15a6 543f 00f1 b23b 7841 a63d
00000090: 9b61 47bf 56ab 0b3e 2a35 983e 2cca 203e
000000a0: ace5 0bbf 8c68 233e a832 2bbf e8a0 98be
000000b0: 518d 223f c253 85be 8a01 3e3f 1b71 24bf
000000c0: 269b 133f ba97 20bf 327e 0ebf 1716 04bf
000000d0: 71ec b2be 98d4 f83d bd30 cdbe 983f 8abd
000000e0: 60e7 283d 132b 2cbf fc92 16bf c29b 03bf
000000f0: 3f0b 0b3f 98b7 d03e eae1 77bf 7575 2e3e
00000100: 0be8 ad3e a58c 713f 84ae 273f 29c6 97bd
00000110: 59ea 103f e595 b9be 201b 853d cc83 7fbe
00000120: d0d3 473e 9f97 9bbe c42d d93e 6dab 183f
00000130: 4bcc ea3e cc2a f23e 7f01 f13e ea9f ba3e
00000140: 80ac 403c 48df d53d dc3e 0b3f e0f6 f4b8
00000150: 401c 60bf de17 d4be e73e 1ebf 0b51 b83e
00000160: 1ebd febe 6ea9 663e 4c87 353e 0080 8837
00000170: 8dc9 203f 2518 31bf 9462 403f f38e 69be
00000180: 7359 a8ba 2a4f e93e 3421 f6be d07c 7e3e

bias f4 [50]
-0.024137244 -0.24085239 -0.5383278 0.5911372 0.010263457 -0.5730068 -0.56382716 0.8424138
-0.16089235 -0.61808085 0.669308 0.26687154 0.29716438 -0.16734433 -0.05836532 0.79374737
0.50230306 -0.40056053 0.50278676 -0.51160735 -0.43908948 -0.6302142 -0.6395886 0.18622905
0.31008837 -0.3866909 -0.6447822 0.4957472 -0.13980937 -0.27091834 -0.02945769 0.6232714
0.07583141 0.35376745 -0.42391038 -0.6943002 -0.43799865 0.24436095 0.47852275 -0.5683762
-0.20445412 0.38120702 0.87910897 0.5906281 0.4958023 -0.34633008 0.29501134 0.29387715
-0.32205933 -0.64439934
00000000: 78bb c5bc 02a2 76be dacf 09bf c454 173f
00000010: 0f28 283c 93b0 12bf fa56 10bf 6ea8 573f
00000020: f7c0 24be 8c3a 1ebf c557 2b3f 63a3 883e
00000030: ee25 983e 505c 2bbe 7910 6fbd 0733 4b3f
00000040: ef96 003f 4516 cdbe a2b6 003f b3f8 02bf
00000050: 56d0 e0be b855 21bf 14bc 23bf d4b2 3e3e
00000060: e7c3 9e3e 5afc c5be 7210 25bf 94d2 fd3e
00000070: 302a 0fbe cfb5 8abe 4151 f1bc b78e 1f3f
00000080: 804d 9b3d 0221 b53e c80a d9be a8bd 31bf
00000090: 5c41 e0be c239 7a3e ef00 f53e 1a81 11bf
000000a0: 6c5c 51be 912d c33e 490d 613f 6733 173f
000000b0: cdd9 fd3e 2d52 b1be ba0b 973e 1177 963e
000000c0: f6e4 a4be 5bf7 24bf

weight f4 [40, 50]
0.04899314 -0.10876861 0.030230671 -0.033136666 0.023044243 0.07321319 -0.07139402 -0.1355041
-0.07907869 0.13945322 0.061938718 -0.124568574 -0.07543116 0.11706753 0.10660334 0.061831027
0.01908429 0.1182404 0.07881713 0.095959455 -0.00010879338 -0.008679509 0.12505098 -0.027093023
0.032928497 0.09842047 0.047710225 -0.06767661 0.11573888 0.011547595 0.033093974 -0.115394875
-0.082975194 0.0914533 -0.051128782 0.12546076 -0.01086852 -0.03505989 -0.046204716 -0.091595545
0.09871848 0.127643 0.006098628 -0.094844356 0.13400505 -0.081182644 -0.10115236 0.063327715
-0.043877907 -0.023050196 0.10866521 0.10279101 -0.09515186 -0.124710254 -0.12665297 -0.08338584
-0.08522808 -0.04783863 -0.03503833 -0.11028279 -0.054523088 0.012878388 0.00023825467 0.0785657
-0.10853213 0.09493384 0.09162879 0.06345321 0.048979685 -0.08721478 0.06847179 -0.12661353
-0.13785855 -0.067958996 0.0451065 -0.029934011 -0.043304726 0.014395714 0.029644549 0.08120358
0.1009804 -0.06881611 0.0026835501 -0.07634512 -0.005659744 -0.04751978 0.10317087 -0.13074788
0.010551676 0.1252838 0.011975735 -0.012580752 -0.09011415 0.13339965 0.120278046 0.13568877
0.10101122 -0.0872895 -0.106630266 -0.1311236 -0.23353907 -0.37653792 0.05917625 -0.12899393
-0.18569537 0.036004126 0.033827245 0.38085085 -0.505938 -0.14137456 0.40327302 -0.21847017
-0.031748854 0.07716572 -0.10459495 0.55280775 -0.19690178 -0.021858163 -0.71221995 -0.07872222
0.1035696 -0.084883384 -0.04483282 0.4524814 0.3452684 -0.12708038 0.04766445 0.017690772
-0.102266096 -0.043293484 -0.0896549 -0.6107456 -0.036515947 0.16389202 -0.06281342 -0.012237862
0.11534785 0.025963329 0.16218151 -0.9595766 -0.14097866 0.114361726 -0.86243355 -0.17358634
0.019177238 -0.11144922 0.34183687 0.12812817 -0.41353878 0.11443783 -0.21503296 -0.52446944
0.124811605 0.16057916 -0.37355062 0.006809935 0.04191792 0.5698586 -0.39942846 0.081930324
0.33916622 -0.28476506 -0.08145083 0.014649302 -0.16089359 0.4983787 -0.29114282 0.08288376
-0.47895882 -0.04674571 0.113159254 0.09386255 -0.033563152 0.2297432 0.45778513 -0.009610534
-0.008092612 0.30093864 0.019552752 0.04042244 -0.075530544 -0.5324087 -0.12635157 -0.0010757307
-0.09572987 -0.03979118 -0.047591433 0.017874021 0.08829329 -0.90872157 -0.09551918 0.112767175
-0.7750487 -0.11190614 0.05899103 0.029212609 0.49480814 0.28991312 -0.5921095 0.05220832
-0.05110009 -0.07380825 -0.086155765 -0.02445399 -0.10511805 -0.0036245137 -0.08293325 -0.1392472
0.06604588 0.054032132 0.015453726 0.1134692 0.021509558 0.12816356 0.09950772 -0.039611347
-0.033024013 0.01681465 0.029756203 -0.074940205 -0.11300619 -0.083198115 -0.073453985 0.10469325
-0.06282111 -0.10221513 0.007952139 -0.059585802 0.08893745 0.017145023 0.053168684 -0.060949437
-0.11049957 -0.106216684 -0.12952834 0.044875234 0.12625672 0.13191892 -0.03631588 0.018824607
0.04271634 -0.059321962 -0.14003846 0.07259156 0.055287346 0.12441783 0.103302374 0.004892856
-0.14069487 0.062304914 -0.103498004 -0.020960787 0.026363492 -0.030710425 -0.13649896 0.109733805
00000000: 08ad 483d 14c2 debd 50a6 f73c 50ba 07bd
00000010: 48c7 bc3c ccf0 953d 0737 92bd 96c1 0abe
00000020: 02f4 a1bd d3cc 0e3e 74b3 7d3d cf1d ffbd
00000030: a77b 9abd 1ac1 ef3d da52 da3d 8842 7d3d
00000040: a856 9c3c 0628 f23d e06a a13d 6486 c43d
00000050: 0028 e4b8 8034 0ebc 5d0d 003e 30f2 ddbc
00000060: 08e0 063d ac90 c93d cc6b 433d 099a 8abd
00000070: 8208 ed3d 2032 3d3c 8c8d 073d 2654 ecbd
00000080: e6ee a9bd de4b bb3d 6a6c 51bd c978 003e
00000090: e011 32bc f69a 0fbd 2841 3dbd 7296 bbbd
000000a0: ea2c ca3d d9b4 023e 00d7 c73b c23d c2bd
000000b0: 9f38 093e 1643 a6bd f828 cfbd f6b1 813d
000000c0: 52b9 33bd c4d3 bcbc de8b de3d 1884 d23d
000000d0: fade c2bd 1768 ffbd 51b1 01be 32c6 aabd
000000e0: 0f8c aebd 70f2 43bd 5a84 0fbd f2db e1bd
000000f0: 9a53 5fbd e0ff 523c 00d4 7939 0ee7 a03d
00000100: 1846 debd ac6c c23d e0a7 bb3d c2f3 813d
00000110: ec9e 483d aa9d b2bd f03a 8c3d faa6 01be
00000120: cb2a 0dbe 162e 8bbd 98c1 383d 2c38 f5bc
00000130: 4c60 31bd 00dc 6b3c 20d9 f23c 104e a63d
00000140: d0ce ce3d 76ef 8cbd 80de 2f3b d55a 9cbd
00000150: 6075 b9bb 1aa4 42bd 404b d33d c6e2 05be
00000160: f0e0 2c3c 654a 003e e035 443c 801f 4ebc
00000170: c48d b8bd eb99 083e 5654 f63d fff1 0a3e
00000180: f8de ce3d d6c4 b2bd f860 dabd 4445 06be
00000190: de24 6fbe 94c9 c0be cc62 723d fc16 04be
000001a0: ed26 3ebe 1079 133d 708e 0a3d e2fe c23e
000001b0: 2785 01bf 7ec4 10be cd79 ce3e a5b6 5fbe
000001c0: 160b 02bd 1009 9e3d e135 d6bd cf84 0d3f
000001d0: 9fa0 49be e40f b3bc 0c54 36bf 1e39 a1bd
000001e0: 4c1c d43d 57d7 adbd 9ea2 37bd a4ab e73e
000001f0: 05c7 b03e 5c21 02be cc3b 433d 3dec 903c
00000200: e370 d1bd 8254 31bd fd9c b7bd d359 1cbf
00000210: bf91 15bd 4fd3 273e 53a4 80bd 5081 48bc
00000220: 7e3b ec3d 0cb1 d43c e912 263e d0a6 75bf
00000230: b65c 10be 7b36 ea3d 72c8 5cbf 9ec0 31be
00000240: 9519 9d3c 7d3f e4bd 3e05 af3e 0834 033e
00000250: 5bbb d3be 625e ea3d 9a31 5cbe a143 06bf
00000260: 3a9d ff3d dd6e 243e 0742 bfbe e025 df3b
00000270: 20b2 2b3d 41e2 113f e381 ccbe 16cb a73d
00000280: 32a7 ad3e bacc 91be b1cf a6bd a003 703c
00000290: 4ac1 24be 7e2b ff3e ac10 95be f6be a93d
000002a0: 173a f5be 6e78 3fbd 0ac0 e73d 023b c03d
000002b0: 8479 09bd cd41 6b3e d062 ea3e 8075 1dbc
000002c0: e096 04bc a114 9a3e 182d a03c 0092 253d
000002d0: c2af 9abd f04b 08bf 4e62 01be 88ff 8cba
000002e0: 060e c4bd 14fc 22bd 3cef 42bd 8a6c 923c
000002f0: 1dd3 b43d faa1 68bf 8f9f c3bd 7af2 e63d
00000300: 9769 46bf 0c2f e5bd 94a0 713d 484f ef3c
00000310: 7e57 fd3e 7e6f 943e 7d94 17bf 64d8 553d
00000320: 544e 51bd c828 97bd 6f72 b0bd bc53 c8bc
00000330: 2248 d7bd 4089 6dbb e8d8 a9bd d196 0ebe
00000340: 1043 873d cc50 5d3d a031 7d3c 8a62 e83d
00000350: d034 b03c 4f3d 033e b4ca cb3d 823f 22bd
00000360: 3044 07bd e0be 893c 48c3 f33c 407a 99bd
00000370: ca6f e7bd c663 aabd 0b6f 96bd 6a69 d63d
00000380: 5ba8 80bd 2b56 d1bd b049 023c 3e10 74bd
00000390: d624 b63d b873 8c3c 68c7 593d 1ea6 79bd
000003a0: 994d e2bd 2288 d9bd 14a3 04be 18cf 373d
000003b0: 7149 013e c115 073e f6bf 14bd 1036 9a3c
000003c0: 54f7 2e3d 96fb 72bd 3e66 0fbe e2aa 943d
000003d0: fc74 623d c6ce fe3d 3290 d33d 4054 a03b
000003e0: 5112 10be 7033 7f3d c3f6 d3bd f5b5 abbc
000003f0: 40f8 d73c 6e94 fbbc 62c6 0bbe 1ebc e03d

bias f4 [40]
-0.111778975 -0.08357598 0.05145035 0.21994753 -0.123101816 -0.027934711 -0.059309702 0.09110887
-0.080082804 -0.0666411 -0.06944978 0.28935322 0.21802294 0.14162895 -0.2320794 -0.08889358
-0.17782001 -0.005422427 -0.06833129 0.08651083 0.003947437 0.00281287 -0.069611326 0.0684824
0.16728452 0.07684065 -0.07866591 -0.058896188 0.1685484 -0.06680382 0.26267055 -0.2556984
-0.13814995 0.07722378 0.09362482 -0.00943767 0.06540878 0.0045515746 -0.06074462 -0.02833607
00000000: 60ec e4bd e229 abbd 9abd 523d ed39 613e
00000010: ce1c fcbd 56d7 e4bc bbee 72bd 4a97 ba3d
00000020: 7402 a4bd 217b 88bd b03b 8ebd 1b26 943e
00000030: 6841 5f3e 2e07 113e 39a6 6dbe d60d b6bd
00000040: 7316 36be 9dae b1bb 46f1 8bbd 972c b13d
00000050: 8059 813b 2158 383b 6290 8ebd 8040 8c3d
00000060: a24c 2b3e a15e 9d3d 981b a1bd 213d 71bd
00000070: f497 2c3e 71d0 88bd c17c 863e e7ea 82be
00000080: 2e77 0dbe 8027 9e3d 5fbe bf3d 75a0 1abc
00000090: 0af5 853d 6025 953b 5acf 78bd 0c21 e8bc

weight f4 [3, 40]
-0.011345908 0.076260746 -0.613184 -0.5656837 0.07660663 0.18550634 -0.06722426 -0.07498554
-0.10631329 0.5058492 0.08077173 -0.6337681 -0.6002513 -0.36324087 0.48968259 -0.15348892
-0.10622014 0.013338685 0.11450158 0.15853462 0.021047622 -0.021035952 -0.06510423 0.095650636
-0.54047084 -0.4732505 0.5919602 0.28915098 -0.6197836 -0.066835426 -0.51029396 0.4021517
0.010706261 -0.5199518 0.52357143 0.39360854 -0.016644433 0.09173812 -0.066172294 0.08684002
-0.14980198 0.0043207705 0.053837072 0.17838725 -0.049721725 0.07734286 -0.012781046 0.02804932
0.11882572 -0.13365176 0.07868789 0.36826384 0.14516352 -0.019041482 -0.11325719 -0.15021227
-0.059039384 0.0045629414 -0.016493618 0.14235485 -0.14759842 -0.16848998 -0.07211944 -0.052094165
0.09843545 0.16383289 -0.27433312 0.21396014 0.15849346 -0.08799349 0.07857039 -0.10652903
0.09753646 0.4845895 -0.0019824468 0.06141816 0.14606737 -0.15259309 0.004133953 0.08395296
-0.011392027 -0.012786746 0.5207502 0.44813135 -0.14275882 -0.19213675 -0.082046375 -0.09270992
0.10570334 -0.33890477 -0.047888428 0.378237 0.39276502 0.6009065 -0.38910562 0.013303414
-0.11166189 -0.02111613 -0.08937105 -0.39643425 -0.02682069 -0.040930778 0.0006299168 -0.15628023
0.5452852 0.39527372 -0.31179518 -0.42579415 0.43811998 -0.20183821 0.31779936 -0.5290414
0.027443618 -0.27704638 -0.3287352 -0.4745904 0.15073343 0.100359336 -0.04087717 -0.030134082
00000000: 30e4 39bc 982e 9c3d a0f9 1cbf a6d0 10bf
00000010: f0e3 9c3d 60f5 3d3e dfac 89bd 0592 99bd
00000020: c8ba d9bd 557f 013f a66b a53d a03e 22bf
00000030: 12aa 19bf b5fa b9be adb7 fa3e 332c 1dbe
00000040: f289 d9bd 808a 5a3c ce7f ea3d e656 223e
00000050: 106c ac3c 9753 acbc 5e55 85bd 7be4 c33d
00000060: 4c5c 0abf e44d f2be b48a 173f 990b 943e
00000070: 23aa 1ebf 03e1 88bd a0a2 02bf d4e6 cd3e
00000080: 5069 2f3c 901b 05bf c708 063f 0f87 c93e
00000090: e859 88bc 32e1 bb3d 5785 87bd 2ed9 b13d
000000a0: b165 19be 4095 8d3b 4384 5c3d 26ab 363e
000000b0: 02a9 4bbd ef65 9e3d 9867 51bc b0c7 e53c
000000c0: e65a f33d 02dc 08be 1e27 a13d 148d bc3e
000000d0: bfa5 143e e2fc 9bbc 63f3 e7bd 3fd1 19be
000000e0: 48d3 71bd ba84 953b a01d 87bc 78c5 113e
000000f0: 0a24 17be a388 2cbe 5bb3 93bd b160 55bd
00000100: 8698 c93d cfc3 273e 6475 8cbe 5e18 5b3e
00000110: 1c4c 223e ee35 b4bd 83e9 a03d e42b dabd
00000120: 32c1 c73d 1d1c f83e f0eb 01bb 9c91 7b3d
00000130: af92 153e 5d41 1cbe 1c76 873b 88ef ab3d
00000140: a0a5 3abc 807f 51bc e34f 053f 7971 e53e
00000150: 5e2f 12be 7fbf 44be ee07 a8bd b3de bdbd
00000160: fe7a d83d ed84 adbe a826 44bd 48a8 c13e
00000170: 7f18 c93e 02d5 193f da38 c7be 90f6 593c
00000180: fdae e4bd bcfb acbc 2b08 b7bd 6ef9 cabe
00000190: 10b7 dbbc 08a7 27bd 0021 253a ed07 20be
000001a0: d097 0b3f 5161 ca3e 9ea3 9fbe b101 dabe
000001b0: 4351 e03e adae 4ebe 99b6 a23e 426f 07bf
000001c0: 70d1 e03c 06d9 8dbe fb4f a8be 83fd f2be
000001d0: dd59 1a3e 3289 cd3d d26e 27bd c0db f6bc

bias f4 [3]
-0.15210019 0.118824326 0.12579407
00000000: 27c0 1bbe 2b5a f33d 29d0 003e
